model/dqn_agent_v2.pth (torch, 287825 bytes, 6 tensors)

fc1.weight f4 [256, 16]
00000000: 8220 063e c41b 513d 8976 773e 6ff2 c33e
00000010: 5607 44bf 6705 a13d 39ff 5c3e 2004 9f3e
00000020: 9e86 1cbe 157a c5be 4086 dbbe 244e 5cbe
00000030: 3cff c1bd e239 553e 9623 18be 4e71 4fbe
00000040: df4d 03bf 87a7 1abf 1c61 f2be 86cf 21be
00000050: 15eb 70be bf46 9ebe 3890 b43d 3e72 f7be
00000060: f9eb b93d d8bb 4b3e d2f8 a3be 5702 b83e
00000070: 5e8d bdbe bef5 88be 28c3 e0bd 393b 0cbf
00000080: d55b a3be a4b8 7abe f2dd fabe d507 10bd
00000090: ae75 933e bb18 953e b7bd 06bf d1c6 273f
000000a0: 85bd 673d 1dd0 ef3e aa87 31be 8643 e8bd
000000b0: 5923 ec3c 06d2 283d 6b4c 2e3d 41b7 a23d
000000c0: b178 fb3e eb10 fcbe 5bdc db3e 4965 923d
000000d0: 79d8 efbd 0877 cebe 9cfd 8ebd 549f 2fbf
000000e0: 6bf7 0cbe f112 043e 2fba 2bbf b984 f43d
000000f0: fae7 4cbd ef9d 07be 916d cf3d 2980 253e
00000100: dffc 2abf 78a1 a2be 804e cbbe 315c f2be
00000110: e352 a03d 727d 993e 5203 afbe 0b49 04bf
00000120: 84a1 523d 8edf 2d3d 3cf1 57be a70e d13c
00000130: 8d3c 8f3e e68b 4d3e 68d2 033d 7865 fbbd
00000140: 7856 6b3e 6c29 833e cc2b 973e e406 66be
00000150: d7a0 19be 5e6e 4fbe da25 0ebe 120e 5cbd
00000160: 22ef b83d 9bcb 023e e146 c5be 4317 40bc
00000170: 86c5 96bf 5ecb 1dbf fa46 233e 8906 12bf
00000180: 373f eabd e634 50bf 6db1 1b3e 4845 5fbc
00000190: ca3d 2b3e 6d0e 133e 8204 d03c 6a1d 05bf
000001a0: be4c 963e d641 633e 12a1 10bf 1e25 8ebe
000001b0: 0ff5 9cbd 9b2a a2be 2e5e 503c ca49 033e
000001c0: ab2d 283d 2517 52be 809b 59bd 5deb 81be
000001d0: 2407 db3e 9e61 6a3e 8ae2 3f3d 8b9f b3be
000001e0: 37bb 1abf c8f2 12bf 7255 843e ceaa 393d
000001f0: cabe 16be ac3c 0dbe 733b 04bd f973 40bd
00000200: f6e9 89be d237 24bf a748 d5be 3a62 aa3d
00000210: 2154 713e 8277 e43e bf3e b53e 41bb b03e
00000220: 3d51 4c3d 6247 393e a87c 58bf a3a1 fd3a
00000230: 6713 f3bd 9db1 72be feb2 1ebe 30f1 843e
00000240: 5cfc 2a3e d82a 66be 4acc 7cbe 13cd 903e
00000250: 4a38 40bf 6891 3f3d eed7 8bbe a8bc 653e
00000260: 98fd 213e 5610 fcbe 68bb c2be 8db6 813e
00000270: 36cf 873e 1772 2a3d 11ea fcbd 1be5 98be
00000280: d695 26bf fc77 17bf a4ab d4be 197c 47bf
00000290: 3a69 a43e 64c6 7c3e 5e3b f1be 5b26 66be
000002a0: b96a 453e 60f8 1f3d 8b7c e53d 28a7 223e
000002b0: ecec 3bbe 5824 973d a33b 833c 45b2 9d3d
000002c0: e8c3 04be 3226 5abd 1a0a 8a3d 9dbc d7bd
000002d0: 83ad 293e 7a8b fa3d 2f54 2e3e 0c94 e3be
000002e0: fa1b a9be 70dc 873e 4d30 0cbf e4c0 01bf
000002f0: 250d 14be 50ff df3c 4eab 38bd 791d 59be
00000300: 16d2 40be 51c9 733e 9c29 45bd 7d6b 0ebf
00000310: 7228 1cbf 5ca9 14bf 11d2 6a3e f539 a73e
00000320: 0101 17bf 9bce 6dbd 7f45 923d 2c85 7b3e
00000330: a532 b4bd 7851 8fbe 575a 81bd f25c 073d
00000340: b135 08bf b3a2 df3d 2954 393f d6bf 083f
00000350: 345d 54be 130d aa3d ce7e 2cbd 72ff 003e
00000360: adaa 84bc 044a efbe a682 49bd 06d9 eebd
00000370: 3792 ebbc 2889 f43d 67ec c2bd 7f17 9c3b
00000380: 2a61 e7be 7fbf 47bf 9f99 11bf 7f3b fabe
00000390: 4f25 24be 3247 f3bd b3c5 9fbe 635f eb3d
000003a0: 3ad0 d23c 9920 0abe 077a 713c 44ff 643e
000003b0: 0670 273e 2bf5 85be a961 19bf c84f 3b3d
000003c0: 1509 2f3e a819 cfbd bac0 593e 94dd fa3d
000003d0: b720 7b3e 062f cd3e 88d8 65be c18b 853e
000003e0: acb1 153d 312a 81bf 25fa 8fbe 4fad 4bbd
000003f0: d491 983b 7610 6d3d 5257 efbc 92e9 75bc
0.13098338 0.05105187 0.24166311 0.382709 -0.76573694 0.078623585 0.21581735 0.31057835
-0.15285727 -0.38569704 -0.42875862 -0.21514183 -0.0947251 0.20822862 -0.14857325 -0.20258066
-0.51290697 -0.60411876 -0.47339714 -0.1580182 -0.23527177 -0.3091335 0.0881657 -0.48329347
0.09078211 0.19895875 -0.32025772 0.35939285 -0.37021917 -0.26749986 -0.10974723 -0.54777867
-0.31906 -0.24484497 -0.48997456 -0.03516372 0.2880072 0.2912043 -0.5263323 0.65537745
0.056577224 0.46838465 -0.17336908 -0.11341004 0.028825449 0.04121592 0.042553347 0.07945109
0.49115518 -0.49231657 0.42941555 0.07148225 -0.11711211 -0.4032519 -0.06981966 -0.6860249
-0.13766257 0.1289785 -0.6708097 0.11939377 -0.050025918 -0.1324384 0.1012832 0.1616217
-0.667921 -0.31763816 -0.39708328 -0.4733596 0.078283094 0.2997852 -0.3418222 -0.51673955
0.051423565 0.042449526 -0.21088117 0.025519682 0.27975884 0.20072898 0.03218308 -0.12275213
0.22982204 0.2561754 0.29525602 -0.22463566 -0.15002762 -0.20256945 -0.13881627 -0.053724356
0.09029986 0.12772982 -0.3853064 -0.011724296 -1.1779029 -0.6163844 0.15945044 -0.5704122
-0.114378385 -0.81330717 0.15204401 -0.013627358 0.1672279 0.14360972 0.025392774 -0.5199801
0.29355425 0.22193083 -0.56495774 -0.27762693 -0.07663929 -0.3167313 0.012717767 0.12821117
0.041059177 -0.20516641 -0.053126812 -0.2537488 0.42778885 0.228888 0.046846904 -0.3508266
-0.6044192 -0.57401705 0.2584644 0.045328908 -0.14721218 -0.13792676 -0.032283258 -0.0469856
-0.2693631 -0.64147675 -0.41656992 0.083195165 0.23567249 0.44622427 0.35399434 0.34517863
0.049882162 0.18093637 -0.8456521 0.001935054 -0.11868935 -0.23700567 -0.15497968 0.2596526
0.1669783 -0.22477281 -0.24687305 0.2828146 -0.7508589 0.04676953 -0.2731318 0.22435248
0.15819395 -0.49231213 -0.38033605 0.25334588 0.26525277 0.04161271 -0.12349332 -0.29862294
-0.6507238 -0.59167457 -0.415372 -0.77923733 0.32111531 0.24685055 -0.47115606 -0.22475569
0.19278993 0.03905523 0.11205395 0.15884078 -0.18352097 0.07379979 0.016019648 0.07700018
-0.12965357 -0.053259082 0.06740208 -0.10534022 0.16570096 0.12233634 0.17024301 -0.44448888
-0.33029157 0.26535368 -0.547612 -0.5068495 -0.14458139 0.027343422 -0.045085244 -0.21202649
-0.18830141 0.23807265 -0.048135385 -0.55632764 -0.60999215 -0.5807092 0.22931696 0.32661405
-0.58985907 -0.058058362 0.071421616 0.2456252 -0.08798722 -0.27991843 -0.06316059 0.033047624
-0.53206927 0.10919704 0.72394043 0.5341772 -0.20738679 0.08303275 -0.042113118 0.12597445
-0.016194666 -0.46736157 -0.04919686 -0.11662488 -0.028756244 0.11940223 -0.095177464 0.004763543
-0.45191318 -0.78026575 -0.5687503 -0.48873517 -0.16029857 -0.11878814 -0.3120552 0.11492803
0.025734056 -0.13488998 0.014738566 0.22363001 0.16351327 -0.2616361 -0.5991464 0.045730382
0.17093308 -0.101123154 0.21264926 0.12249294 0.24524198 0.4007494 -0.22445881 0.26083186
0.036546394 -1.0091001 -0.28120533 -0.049725827 0.004656056 0.057877026 -0.029216442 -0.015009301

fc1.bias f4 [256]
00000000: 9ee1 d7be e571 b4bb def4 86be 6f48 c3be
00000010: 072e 66be 8dd7 28be 2f36 0fbe cee1 0a3c
00000020: 62f5 a0bc 3a06 9cbd 8660 29bd 2a82 813c
00000030: 0d07 38be 3471 30bf 9cb2 8fbe fc67 0dbf
00000040: 3b72 79be 8556 e8bd dfc0 b3be 63cf 503e
00000050: c6b0 21be ed73 11bf efee 70be 9864 3ebe
00000060: ed25 223e 2153 67be 0290 103e 94c5 8bbe
00000070: 2500 aa3d 24fe 58be 6b36 e5be 1eab b03d
00000080: 17e4 8cbe df1d a8be e15e 29be 58ff 77be
00000090: 4f35 d4be 51da cdbe d6b9 a0be 705d 0dbf
000000a0: ce97 a5bd 16ec c1be 7e93 b7be b3d4 ddbe
000000b0: 1095 b2be 309f c6be 1551 283e 67cd f13c
000000c0: 8372 683c 2f92 063e 8fb6 69be 6941 2c39
000000d0: 40ee 0fbe 90f7 b3be 416b 15be 9a70 84be
000000e0: bb08 d6b8 bcd2 2ebe a6c0 e0be be8d a33d
000000f0: f910 f63d 3822 e5be c286 483b 9579 cbbe
00000100: 5f2b 42be 9098 e3be 0aef ddbe ae66 3ebe
00000110: 930f 9dbe 60eb 2dbe e5a8 5dbd 4872 d0be
00000120: 51e3 26be 3afa 72be fd9f 1fbf 236e 33bd
00000130: fd03 cbbe a395 763d d008 c1be b257 07bf
00000140: 2f10 1ebf 788a 02bf cc2c 07bf 1f09 3a3e
00000150: de33 4c3c 5756 0d3e 77b8 2ebf 970e 533d
00000160: e7fb 9ebe 518e 80be 300a 4d3e 3320 8cbe
00000170: f933 0fbf 9340 8fbe ec77 54be 4784 9c3d
00000180: 15c0 15bf 01c0 82be df97 03be 9294 98bd
00000190: 7f94 1fbf c4e2 363e a292 a7be 8f78 c3be
000001a0: cf91 35be 9690 4f3d e1d5 b6bd 8f5e 643d
000001b0: b69d 65be b273 56be b73d 193e 2283 0ebe
000001c0: 2e9e 28bd 43a2 f73d 142f 25be 2adc 60be
000001d0: c2ca 4b3d f85f 82be a778 04bf 522a 113e
000001e0: c96b 63be 376a ccbd e2d7 53be c595 aabe
000001f0: 9b15 82bd 2f79 183e 3236 e9be b021 80be
00000200: 9995 c6bd fcf8 a3be 8f4d 24bf ecfb b5be
00000210: 7f66 1bbe 5f11 c2be ba4f b2be fdaf a7be
00000220: 95c1 04bf 096a 16bf e35e cdbe b5fe 24be
00000230: 43f8 3abe aa07 08bf df19 e4bd 49db dd3d
00000240: ac43 dbbd 42f4 3cbe 604e 08be 944e b7be
00000250: 3b5a 00be d05a d1be 2ed0 12be c548 fdbe
00000260: 880b cabe 7609 a1be 0037 bebe d105 afbe
00000270: 8fa4 1ebe 60b3 c3be 263a e2be 530b eabd
00000280: 939f 38bd b29a ea3c 6910 a7be 0966 06bf
00000290: f9f8 793d a54f 19be dd4e 6a3e f6ae 65bd
000002a0: 70ae 22be 7dc9 6e3d ad88 c6be a5b7 2bbf
000002b0: 22ac 83be fe47 663d 7df6 96be 3c54 1ebf
000002c0: 3366 a6be 63bb d73b 939d cbbe edb5 91be
000002d0: 2497 f93d fede 573e efcb d0be 53e5 ccbe
000002e0: 25b7 bdbe f79b 7e3d 56b5 dbbe c54c a0bd
000002f0: baa7 e9bd aa78 b4be 9a5d 84bc b09e 14be
00000300: decb 8fbe b670 e0be 7844 dd3c 292c c7be
00000310: 7247 a2be 8984 f93c 73c1 27be 8bda 9dbe
00000320: 72e9 83be f08b 47be 64a9 e63c 0ed5 53be
00000330: 0046 ccbe 442d 69be 3c05 3ebf 798c 4fbd
00000340: 2d83 c7be a6cf 94bd 3390 80be 7a5e e5be
00000350: 0506 92bd 286f 7abe be14 cbbe 7ac4 e6be
00000360: d4e4 f5be 85fc 6bbd 5cfd f7be f986 9dbc
00000370: ed66 58be ab73 d1bd 55e1 bfbe aecd 73be
00000380: 20ba 99be 9e8a 2dbe 54bf 6fbd 4f73 373e
00000390: b8d3 80be e8ff d6bd a139 b43c db03 49be
000003a0: 96e0 fabe 2195 8dbe 45d5 57be 358b 05bf
000003b0: da78 033e 2c80 fcbd 1f53 74be 25de 103e
000003c0: ef7f a2be edcc 9bbe 2778 61be e8f5 9bbd
000003d0: 8e72 9dbe 26c1 cabd ef5f 19bf e117 d7be
000003e0: 686e 853e 0d11 aabe 8010 55be ed2b d53d
000003f0: 6683 2bbf d626 7bbe 4b2c 76bc f321 d4be
-0.4216432 -0.0055067413 -0.26358694 -0.381412 -0.22478496 -0.16488476 -0.13985513 0.008476688
-0.019648258 -0.07618375 -0.041351818 0.015809137 -0.1797144 -0.68922734 -0.28065956 -0.5523679
-0.24359982 -0.11344627 -0.35108086 0.20391612 -0.1579009 -0.56817514 -0.23528646 -0.18593061
0.1583478 -0.22590305 0.14117435 -0.27299178 0.08300809 -0.21190697 -0.4476808 0.08626388
-0.2751777 -0.3283529 -0.165401 -0.242185 -0.4144692 -0.40205625 -0.31391782 -0.552207
-0.08085595 -0.37875432 -0.35854715 -0.4332634 -0.3487935 -0.38793325 0.1643718 0.029516889
0.014187458 0.13141702 -0.22823547 0.00016427565 -0.14055729 -0.35149813 -0.14591695 -0.25867158
-0.00010205941 -0.17072576 -0.4389698 0.079860196 0.12014956 -0.4475267 0.00305979 -0.39741197
-0.18961857 -0.44452333 -0.43346435 -0.18593857 -0.30675945 -0.1698432 -0.05411615 -0.4071219
-0.16297652 -0.23728266 -0.623535 -0.043806206 -0.3965148 0.0602013 -0.37702036 -0.5286819
-0.61743444 -0.50992537 -0.5280273 0.18167542 0.012463538 0.13802467 -0.6825022 0.051527586
-0.3105156 -0.2510858 0.20023417 -0.27368316 -0.5593868 -0.27978954 -0.20748872 0.076424174
-0.5849622 -0.25537112 -0.12850903 -0.074502125 -0.6233596 0.17859942 -0.3272906 -0.38177916
-0.17731403 0.050674997 -0.08927513 0.05575424 -0.22423443 -0.20942572 0.14964949 -0.1391721
-0.041166477 0.12091496 -0.1613124 -0.21958986 0.04975391 -0.25463843 -0.517466 0.141763
-0.22209086 -0.099811964 -0.20687822 -0.3331739 -0.06351777 0.14889978 -0.4554916 -0.25025702
-0.09696502 -0.32025898 -0.64180845 -0.35543764 -0.15175818 -0.37903878 -0.34826452 -0.32751456
-0.5185788 -0.58755547 -0.40111455 -0.16112788 -0.18258767 -0.53136694 -0.11137747 0.10832841
-0.10706267 -0.18452552 -0.13311148 -0.35802138 -0.1253442 -0.40889597 -0.14337227 -0.4946958
-0.39461923 -0.3145253 -0.37151337 -0.34184125 -0.15492462 -0.3822279 -0.4418499 -0.11427941
-0.045074057 0.028638218 -0.32629707 -0.52499443 0.061028454 -0.14971788 0.22881646 -0.05607506
-0.15886855 0.058297623 -0.3877615 -0.67077094 -0.25717264 0.056221 -0.2948493 -0.6184728
-0.32499847 0.0065836175 -0.39768657 -0.2845911 0.12187031 0.21081159 -0.4078059 -0.4001871
-0.3705379 0.06216046 -0.42911786 -0.078271426 -0.114089444 -0.3524831 -0.016157914 -0.1451366
-0.28085226 -0.43835992 0.027010188 -0.3890088 -0.31695133 0.030458705 -0.16382389 -0.30830798
-0.25764042 -0.19486976 0.028156944 -0.20686743 -0.39897156 -0.22771174 -0.7422674 -0.050671075
-0.38967267 -0.07266168 -0.25110015 -0.44798642 -0.071300544 -0.24456465 -0.39664263 -0.45071775
-0.48026145 -0.05761387 -0.48435485 -0.019229399 -0.21133013 -0.1022714 -0.37476602 -0.2380893
-0.30024815 -0.1694741 -0.058532074 0.1791508 -0.2516153 -0.10498029 0.022000136 -0.19630377
-0.4899947 -0.2765284 -0.2107745 -0.5216554 0.1283907 -0.12329134 -0.23859833 0.14147241
-0.3173823 -0.30429783 -0.2201849 -0.07615262 -0.3075146 -0.099001214 -0.5991201 -0.42010406
0.26060796 -0.33216134 -0.20807076 0.10408769 -0.66997373 -0.24526533 -0.015025209 -0.4143215

fc2.weight f4 [256, 256]
00000000: e0ee bdbd 9510 cf3e 37c1 cd3d abd8 953e
00000010: 12ce 163e e353 653f 0c42 f83d 31c8 41be
00000020: 713b 0abf d62c 743e f19f b93d 98e3 ba3e
00000030: 4761 cabe 1b7d fcbe e618 dc3e 97d7 38be
00000040: a149 7abe cac0 d23e 49f6 e43d 1f4b d8bd
00000050: 7e1c a0be 5275 933e 5444 2abf 1aa7 ac3c
00000060: 62da 02bf 6c63 703e 514d 8fbe 258f 5cbf
00000070: 5d51 f8be e206 16be 517e 10bf 6181 83bd
00000080: 46e5 c6bd 8794 d53d 48e9 9f3d fecd d0be
00000090: 8a9d fb3d 0d37 b0be f491 97be 9050 1abf
000000a0: d3a5 debe 2eb7 0bbe e111 3ebd 6959 b43d
000000b0: 43ad d13d 81e9 1cbe 3439 183d 94d6 1bbe
000000c0: 0db6 9dbf 16fa ffbe 0163 a83d 55b2 41be
000000d0: e8a7 05bf 2913 64be 6e90 d53d 134f 253e
000000e0: e58e 913d 0195 bfbe 9a26 d63e f009 ebbd
000000f0: 2c8d 28bf 4aaa 91bf 69a4 e9be 2b30 06bf
00000100: 979d 04be d6d7 1e3f 889b dbbe 5f5e 74be
00000110: 060f 233e dacb c8bc 4546 8cbf 9ff1 dfbd
00000120: 57f1 193f 376b 4ebd b6c2 abbe a091 1e3f
00000130: 1f7e ff3d a109 41bd e279 5cbe 164f 8d3d
00000140: d4d2 5c3e bb75 92bd f94b ebbe 651f d63e
00000150: 249b 95bf 84f2 43be 5a5d d5be 74fb f4be
00000160: 16ba a6be 31e8 3abe 023c e03d dd06 d8bd
00000170: 5fe1 2dbf c377 28be 2b38 693e 64a7 953d
00000180: 902d 0b3b 12c8 8dbe 39fa 98be 94a7 84bd
00000190: 19ee 833e dea2 ac3e 8abc 86be 0d47 0b3d
000001a0: a606 76bf e95d 11bd 8342 5cbf b437 adbf
000001b0: 2efd 293e 7aec 3bbd 1904 163e defa cb3e
000001c0: c6aa 98be cda9 803e 39e0 8a3d 4b00 393e
000001d0: 8c79 433c e33c 1abd f20a 85be aef9 cf3d
000001e0: 2960 20be 2ed2 23bf e075 d1bc 53b9 bc3e
000001f0: 9d19 70bf 8173 543e 7105 1bbf 0c35 b03c
00000200: 061d c5bf 5a61 16be f463 d8be e652 cdbe
00000210: ec73 29bc 22ca 3dbe 1720 08be d68b 9fbe
00000220: ce04 cabd edc2 8ebd 0bf8 ac3e 18d8 533f
00000230: 5d00 333e 1895 94be a9ef 5fbe ce99 39bf
00000240: e0d1 f4be 2243 0dbf 0591 bfbd 2b66 d7be
00000250: 2030 d93d 1b01 7c3d 052e 0c3f baa2 46bf
00000260: 0e32 0e3e 3b46 4cbf 3190 a1be 45c4 283e
00000270: 718b b03e 8a3f a3be 419d 1ebe e1ac 15bf
00000280: 9c05 bdbe 8d7d 09bc 98e5 693c 9012 a3be
00000290: 6c49 97bf 45d7 86bf c1b9 b2bd afa4 dfbd
000002a0: db6c 843e e559 1b3e d540 81bf 2177 fe3e
000002b0: f032 eb3d d872 c53e da2a 083e ed07 a43d
000002c0: c2ed 38be b1a0 303d 4d0c 2abf 054b b7bf
000002d0: 2fde 86bd ce1d 4c3e e854 f1bc f809 a9be
000002e0: c06b b83e 2294 85be dcf3 a33e 90cf a53e
000002f0: e646 dc3d f6bf 5bbd 2011 783f a41c 663d
00000300: db4c 14bf 3da8 833c 3d76 d1bc 5ce8 a7bd
00000310: db04 f13d 9eb1 333e f817 f03e 3af8 193e
00000320: c669 94bd 011f c9bd 9d46 5cbf b664 8cbf
00000330: d6c0 d23d e755 0c3f 6789 e0bc d4d5 90be
00000340: cc98 543e 051a 253e dcf1 303d 565e 223f
00000350: 0a89 313e 4bb6 1f3d 8916 ab3d b1f7 66be
00000360: e7ae 0abf a495 8ebf c3cd 2d3e a12a bdbf
00000370: 0b29 883d 9955 04bf 8350 3ebe e8cb d53e
00000380: 0075 663e 408e 88bc 2008 3abf 437f 13be
00000390: 73fb 283d fd17 28bc 92ff 303e 2e62 843f
000003a0: 35f9 d1be ae07 98be 7560 233f 4747 063e
000003b0: a6ce f03e 8466 6b3f 91fd 453e cb9f 513e
000003c0: 9fc2 4a3f 4dd9 f3be 3108 51bc f1a8 8a3e
000003d0: f448 1e3e 2dbe da3e da49 89be f4cd 383e
000003e0: d8a4 c0bc 8307 28bd 75db c03e b2b6 0f3f
000003f0: cc56 183e 5cd3 a4be a74b b5bf be07 08be
-0.092740774 0.4044234 0.100466184 0.29266867 0.14727047 0.89581126 0.121219724 -0.18924023
-0.5399695 0.23845229 0.090637095 0.36501765 -0.39527342 -0.49314198 0.42987746 -0.18050991
-0.2444215 0.4116271 0.11179788 -0.10561203 -0.31271738 0.28800446 -0.6651051 0.021075774
-0.51114476 0.23475426 -0.27988675 -0.8615592 -0.48499575 -0.14651063 -0.56442744 -0.064211614
-0.09711699 0.1042872 0.07808167 -0.4078216 0.122859076 -0.34417 -0.2960354 -0.6027918
-0.4348589 -0.13644096 -0.04640377 0.08806116 0.10238125 -0.1532345 0.03716393 -0.15218574
-1.2321182 -0.49995488 0.082220085 -0.18915685 -0.5220933 -0.22272934 0.104279384 0.16143446
0.07107333 -0.37418368 0.41826326 -0.11476505 -0.6584041 -1.1380093 -0.45633247 -0.5241725
-0.12950741 0.6204809 -0.42892098 -0.23864125 0.159237 -0.024511266 -1.0958945 -0.109347574
0.6013388 -0.050395217 -0.3354699 0.61940956 0.124752276 -0.047128323 -0.2153087 0.0689985
0.215648 -0.071513616 -0.459564 0.41820827 -1.168797 -0.19135481 -0.41672784 -0.47848094
-0.32563847 -0.18252636 0.109489456 -0.10548184 -0.67922014 -0.16451935 0.22775333 0.07307318
0.0021236874 -0.27691704 -0.29878405 -0.064772755 0.25767592 0.33718008 -0.2631572 0.034003306
-0.96103895 -0.03548995 -0.8603899 -1.3532624 0.16600487 -0.04587982 0.1465 0.39839834
-0.2981779 0.25129548 0.06781048 0.18066518 0.0119308345 -0.037655722 -0.25984913 0.101550445
-0.15661682 -0.63992584 -0.025568902 0.3686014 -0.9378908 0.20747186 -0.6055518 0.02150967
-1.5399482 -0.14685574 -0.42263758 -0.4010231 -0.010342579 -0.18534139 -0.13293491 -0.31161374
-0.09864198 -0.06970773 0.33782992 0.8275161 0.17480607 -0.2902 -0.21868767 -0.7250031
-0.47816372 -0.5518056 -0.09353832 -0.42070135 0.10604882 0.06152449 0.5475772 -0.7759205
0.13886282 -0.79794663 -0.31555322 0.16481121 0.34481385 -0.31884414 -0.15489675 -0.5846692
-0.36918342 -0.00839175 0.014275931 -0.318501 -1.1819282 -1.0534445 -0.08726836 -0.10920083
0.258643 0.15171011 -1.009791 0.49700263 0.11484325 0.3856418 0.13297597 0.08009324
-0.18059447 0.043121997 -0.6642502 -1.4319769 -0.06585347 0.19933245 -0.029459432 -0.33015418
0.36019707 -0.2608958 0.32021987 0.3238492 0.1075571 -0.053649865 0.9690113 0.056179658
-0.5792977 0.016071433 -0.025569076 -0.08198616 0.11768504 0.17548224 0.46893287 0.15036097
-0.07246737 -0.09820367 -0.8604525 -1.0968235 0.10290687 0.54818577 -0.027409269 -0.28288138
0.20761412 0.16123207 0.043199405 0.63425195 0.17337433 0.038992207 0.083539076 -0.22555424
-0.5417313 -1.1139417 0.16973023 -1.4778634 0.06648453 -0.5169311 -0.185854 0.4175713
0.2250557 -0.016669393 -0.7266865 -0.14404015 0.041255426 -0.0102596255 0.17284992 1.0342462
-0.41010442 -0.2969336 0.63819057 0.13113128 0.4703266 0.919533 0.19335009 0.20471112
0.7920322 -0.47626725 -0.012758301 0.27082017 0.15457517 0.42723218 -0.26814157 0.18047315
-0.023516104 -0.04102279 0.37667432 0.56138146 0.1487686 -0.32192504 -1.4163712 -0.13284203

fc2.bias f4 [256]
00000000: 509e 853f cbfc 753f baca 8a3f 2092 0240
00000010: ae38 38bd 0501 5e3e c838 8e3f 582b 563f
00000020: 45de fb3f d8fd dc3e 8115 803f 612e fa3f
00000030: 63cc 0340 2866 523f 9c8c 0040 2c12 a73f
00000040: 933a 873f 712c 973f 5fbe ec3e 2e9b 463f
00000050: 894c 0340 d180 0140 3df9 0140 690f cf3f
00000060: 10d9 653f f7f6 ed3f 10c2 c83f 528d 30be
00000070: 317f 64bd f210 fe3f cd16 37be 3180 bf3e
00000080: 0aa6 fb3f 7be1 bb3f 6e77 d93f 321b 94bd
00000090: 5aaa d83f 03ac ce3f 140b c53f 009e ba3e
000000a0: 44f2 ff3f 8d91 f9bd 74d5 033f e0d2 823f
000000b0: 1804 0040 f328 ed3f 508f dc3f fad2 ec3f
000000c0: 35b4 22be 10b8 8a3f ce84 e53e 3efd dd3f
000000d0: 31b6 e13f 54c4 c83f 0fe5 8d3f 087e ddbd
000000e0: 2e67 c8bd 2a7f ff3f d176 793f 5cd3 0140
000000f0: a5e8 303f 516b c9bd 2819 b93f fe2d 903f
00000100: 795e af3e 088a 833f 5dcf e03f bff0 8b3f
00000110: cf06 ad3f 133d f43f 3a22 06be b0f8 863f
00000120: 6251 fa3f f0d1 8f3f 67dc 6b3f 574e b83f
00000130: 9e41 12be 0730 febd c386 c13f b198 34bd
00000140: f187 3bbe 240a 063f c3e9 053f 0534 00be
00000150: f2d3 bb3f 90a5 e43f 8045 6f3f b8e7 6b3f
00000160: 53f2 0740 e3dc e03f 8a74 e73f d71f 7bbd
00000170: 9b4c 00be 2b86 4ebd 6746 d23f a5ab 8d3f
00000180: 5b8f cabd 2458 6c3f 471f 0abe 10f9 1abe
00000190: 7ee8 be3f 4169 03bd b51e 0240 87da c0bd
000001a0: aafa a53f c19f 823f 47be 90bd 7624 983f
000001b0: 8763 a33f 817b c83e 6cda 153d e214 613f
000001c0: 3810 e3bd cf36 62be 7efc cfbd 451a 733f
000001d0: 68fb 05bd d98d a3bd 4353 ee3f 7101 883f
000001e0: c9f4 96bc 4e68 ea3f ec1a 723f 86ec 8dbd
000001f0: 7563 f53e a7ec 5d3f 1d55 f73f a113 c9bd
00000200: b97a fa3f 55e0 29bd b040 683f bcd0 0740
00000210: c1b0 863f 97a5 653f d06c 0340 2c5e 613f
00000220: 5a85 483f 116d ee3f 5de6 a4bd 8eed 5f3f
00000230: d8a4 f83e ec5b 6a3f f9da 643f 057a 8b3f
00000240: 8dcc 343f 110f 093f 523f 8b3f ef1b f03d
00000250: 8dfc f83f ca43 f53f 755d c2bd c05f 0a3f
00000260: b97c fabd 34d8 fe3f c655 d3bd 6bd0 cb3e
00000270: c4df 7a3f 5dde 15be b1db 4b3e 3b3f 0540
00000280: 180f e33e 3e1c 4b3f f99c 72be 9128 0abe
00000290: f4bc d13d 0c34 0140 d50b 823f 2432 873f
000002a0: 5437 f73e d6ca b23f 77eb ff3f 58f7 8c3f
000002b0: 0544 953f 6566 823f dbf8 e93f 66a8 453f
000002c0: fba1 d63f c73e 99bd cddf 3d3f ec6c 3cbd
000002d0: 1646 883f bbf9 583f edb1 903f 1383 f33f
000002e0: 5d3e b83f aca9 c23f fde0 1b3e 8cbe 9c3f
000002f0: db38 d73f a702 673f e991 bb3f cddf 353f
00000300: 03dc 0240 5fc7 d3bd 587b bb3f 091b d63f
00000310: 9b33 ff3f fc5b 803f 1ed7 aebd 9722 3ebe
00000320: 4e1b 613f bdf2 fa3f 3609 73bd 7e14 b83f
00000330: 4039 0240 5e52 863f 0296 9c3f 1f63 8e3f
00000340: 48f4 f83f 9396 863c 8db1 0140 6822 713f
00000350: 1dab 08be 65fe 773f e7a4 02be d506 9ebd
00000360: 6775 f93f f582 753f 6c49 6f3f 398d 113f
00000370: f906 0140 8c3e e53f 52df 6e3f 2288 e73f
00000380: 30eb e33e 674e 653f 539a ee3f 9ddf cf3f
00000390: 4e98 0040 564c 563f bbd4 0040 4016 063f
000003a0: 54e9 d9bd e783 633f 3265 ed3f 7284 fe3f
000003b0: 958b a03e 7049 853f a444 1cbe df3d 86bd
000003c0: 2834 0140 a9b6 c53f c9c1 6a3f 46d0 b53e
000003d0: e68f 683f ff9f 0ebe 585b f5bc 238a b8bd
000003e0: 2960 883f 1213 d9bc 17cd 0cbe 8a48 aabd
000003f0: 2bdf a0bd 356f 953f 689d a03f f5ac 11be
1.0438938 0.96088856 1.0843117 2.0401688 -0.04497593 0.21680076 1.1111078 0.8365989
1.9677206 0.43162417 1.0006562 1.9545404 2.0593498 0.8218713 2.008582 1.3052421
1.056475 1.1810437 0.46238992 0.77580535 2.0515463 2.0234873 2.0308373 1.6176578
0.89784336 1.8590993 1.5684223 -0.1724141 -0.05578536 1.9848921 -0.17879792 0.3740249
1.9660046 1.4678186 1.6989572 -0.072317496 1.6926987 1.6146244 1.5394006 0.3644867
1.9995809 -0.12185965 0.5149758 1.0220604 2.0002499 1.8528122 1.7231236 1.8501885
-0.15889056 1.0837421 0.44827884 1.7342908 1.7633725 1.5684915 1.1085528 -0.10815054
-0.09785305 1.9960682 0.97446924 2.0285254 0.6910499 -0.09834922 1.4460802 1.1264036
0.34251764 1.0276499 1.7563282 1.0932845 1.3517703 1.9081138 -0.13098994 1.0544643
1.9556086 1.1235943 0.9213318 1.4398907 -0.14282843 -0.12411504 1.5119251 -0.04409093
-0.18313576 0.52359223 0.5230982 -0.12519844 1.4674056 1.7863026 0.93465424 0.9215045
2.1241653 1.7567409 1.808244 -0.06130966 -0.12529223 -0.05042092 1.6427735 1.1068007
-0.09890624 0.9232199 -0.13488494 -0.15134072 1.4914701 -0.0320828 2.0331242 -0.09416681
1.2967122 1.0205003 -0.070675425 1.1886127 1.2764748 0.39156726 0.036585256 0.8792249
-0.11087078 -0.2209122 -0.10155581 0.9496196 -0.032710463 -0.0798604 1.861916 1.062544
-0.01842727 1.8313081 0.9457233 -0.06929879 0.47927442 0.8668923 1.932285 -0.09818197
1.9568702 -0.041473705 0.90723705 2.1221151 1.0522691 0.89705795 2.0535164 0.8803432
0.7832848 1.8627034 -0.08051751 0.87471855 0.48563266 0.9154651 0.89396626 1.0896612
0.7062462 0.53538615 1.0878699 0.11724078 1.9452072 1.9161313 -0.09490482 0.5405235
-0.1223082 1.990973 -0.10319094 0.39807448 0.9799769 -0.14635606 0.19908024 2.0819843
0.44347453 0.7933997 -0.23692693 -0.13492037 0.10241118 2.0188017 1.0159861 1.0562177
0.482844 1.3968151 1.9993733 1.1012983 1.1661383 1.0187498 1.827907 0.7721008
1.6768183 -0.07482677 0.7416962 -0.046002313 1.0646389 0.8475606 1.1304299 1.9024376
1.4394032 1.520803 0.15222545 1.224565 1.6814226 0.9023842 1.4653903 0.7104462
2.0446784 -0.103407614 1.4647017 1.6727 1.9937624 1.0028071 -0.08537124 -0.18567882
0.8793229 1.9605328 -0.059334956 1.4381254 2.0347443 1.0493886 1.2233279 1.1123999
1.9449549 0.016429221 2.0264618 0.94193125 -0.13346525 0.9687255 -0.12758218 -0.07716147
1.9488953 0.9590295 0.9347141 0.56856114 2.0160506 1.7909713 0.9330951 1.808842
0.4451537 0.8957276 1.8640846 1.6240116 2.009296 0.8371023 2.012984 0.523777
-0.10640207 0.8887314 1.8546507 1.9884169 0.31356493 1.0413036 -0.1526056 -0.0655477
2.0188084 1.5446368 0.9170194 0.35510463 0.9084457 -0.13928221 -0.029950783 -0.090107225
1.0654346 -0.026498351 -0.1375011 -0.08314617 -0.07855066 1.1674563 1.2548037 -0.14226134

fc3.weight f4 [4, 256]
00000000: f622 073f ca15 bf3e 7f1c 773e e760 fc3e
00000010: 8282 abbb ab9a 79bf 5a4e 8b3e c765 5f3e
00000020: f47c f03e ebe9 2cbf 0a75 c13e 739e 083f
00000030: 2fd4 003f a213 7b3e 18fd f93e 59c5 ce3e
00000040: b05d 1b3f bcfa d43e a091 0e3e e359 f03d
00000050: 328c 273f f812 083f 6f6f 033f 9d9c e63e
00000060: dd32 5f3e f68b 1c3f 3885 c63e 9b26 ddbc
00000070: 8da8 01bd 389b fd3e c4b3 c0bd 23d1 33bf
00000080: 02af ef3e 4719 ca3e 4bb7 c63e 72f5 9cbd
00000090: 2966 af3e 27f1 c43e 3d8c b23e e352 ebbe
000000a0: f212 0c3f 497a 4cbc 5e89 18bf 3bfa b83e
000000b0: ce89 023f 1007 e03e f7ef d83e cfc2 ec3e
000000c0: 4230 9fbc 7c6d dc3e 8a34 18bf 444b e53e
000000d0: faa9 ef3e 305d cf3e 6a3e 7d3e af65 933c
000000e0: a890 aa3b 7fe9 f63e a001 633e 4a41 0e3f
000000f0: 0d11 0b3e a938 80bc 87e0 c03e e92a 2a3e
00000100: 83bf a0bd 1bf2 a63e 876d d93e 6e27 563e
00000110: b9f8 033f 47fb f63e 3d61 0fbc 0f91 8c3e
00000120: c07f e93e c2c2 263e d786 e43e cbd9 c33e
00000130: 7a32 f13c 3824 14bd e329 b93e 70ee 6cbb
00000140: 0344 cbbc 175c 163e f380 12bf 0e8f 5ebd
00000150: d9da ba3e 792e c43e b62e 8d3e d8ab 0a3f
00000160: a54d 323f 1bff ed3e d645 7e3f c77c 763d
00000170: d8b7 67bc ba37 aa3a 3977 e03e 4016 673e
00000180: 105d d3bc ba63 9b3e c1e1 2abd 9d40 c33d
00000190: 623c bc3e da55 2d3d 33da 033f ba1b 3bbd
000001a0: cbdc 8d3e 4d47 ae3e 74c8 1c3d 45dc a93e
000001b0: f8b9 7a3e 3206 823e 5142 75bf 91f6 f1bd
000001c0: abce c9ba 2c7d 8a3d 0874 cdbb bb17 b93e
000001d0: 68d5 533c 2fab 43bb 218f dc3e e15d 2d3e
000001e0: 4e33 00bd 404f c93e 06df 693e 2bc6 8f3b
000001f0: 5593 2ebf e3db 6d3e f54d 063f 6f60 cbbb
00000200: b95b 843f 02bb 893d 64de b03e c62d 013f
00000210: 23d1 8c3e cf38 aa3e ad10 073f c7d5 6d3e
00000220: df51 fa3e a07f ec3e 59d3 09bd 3c9d 813e
00000230: b910 f6bc 7e23 eb3e cb3e 8e3e f94a 0d3e
00000240: ba04 7d3d b27c 323e 4fe8 293e 8621 47bf
00000250: 5616 8a3f fd1e ff3e 0a0b 37bd da2d 6cbf
00000260: 6769 aebc f2b0 1b3f 00c0 4339 bffa 09bf
00000270: 65ee 713e 5d51 c73c 5c4d 51bf 6dfa 053f
00000280: 2ba7 1bbf d8a5 653e d0e0 0abf 91d2 183e
00000290: f1f6 7abf 9106 ff3e 6fac b53e 44bd dd3d
000002a0: 7324 76bf 8987 923e 82dd f63e 9881 5c3e
000002b0: 6211 9f3e 212c 8d3e c9b9 ce3e afd6 6f3e
000002c0: 9699 af3e 204c a2bb 5c03 3b3e d629 c9bc
000002d0: 576b 933e 69f5 773e 51bb 1d3e f843 d83e
000002e0: 1a84 c33e f40c 313f dde1 733c 46ad 033e
000002f0: e17b cd3e 3b7c 9d3e 4016 c13e 816b 833e
00000300: 7b57 0c3f acd8 b83b 9f1e c53e aa65 b73e
00000310: a883 fb3e bf2b 073e 6214 18bd e0cf d2bd
00000320: 243f 683e 5363 013f f9ac be3d ff92 213f
00000330: 6354 043f 961e d43e d907 223e 67f1 203e
00000340: 67a7 f93e b84b 613c e1bf 1c3f 7350 4c3e
00000350: 9175 8c3b e66a 953e d13f d2bb 57e1 473d
00000360: d5ac 173f 7405 733e 0008 893e 3da1 463e
00000370: 9173 a13f 3fa6 e43e 8f8a c53e f95a df3e
00000380: c717 43bf f1e1 793e aade f13e 368b e03e
00000390: 9f4d 033f dbce 693e bf48 053f f46c 76bf
000003a0: 8248 f9bc 7e75 4d3e 3dba cf3e 901b 133f
000003b0: 5baf 2dbf 79ff af3e 8f82 47bc 6372 8c3c
000003c0: bb03 e83e 7071 c53e 300b b93e 5e92 0fbf
000003d0: 4bb7 693e 8c45 93bc f867 a1bd 05b0 2e3b
000003e0: 4b88 bb3e 3e1a 21bd 012f ab3d 12ff 923d
000003f0: 1cb2 15bd 13e5 063e 753f de3e e53a df3c
0.5278772 0.3732131 0.24131964 0.4929268 -0.0052340636 -0.9750163 0.27208215 0.21816169
0.46970332 -0.6754443 0.37784606 0.53366774 0.50323766 0.24519208 0.48825908 0.4038494
0.6068983 0.41597545 0.13922739 0.117358945 0.65448296 0.53153944 0.5134191 0.4504136
0.21796747 0.61151063 0.38773513 -0.026995948 -0.031654883 0.49532485 -0.094092876 -0.7024099
0.46813208 0.3947241 0.38811716 -0.076640025 0.3425763 0.38465235 0.34872618 -0.45961675
0.5471641 -0.012480327 -0.59584606 0.3612841 0.50991523 0.43755388 0.4237058 0.46242377
-0.01943219 0.4305228 -0.5945517 0.44783986 0.4680937 0.40500784 0.2473084 0.017992822
0.0052052327 0.48225018 0.22168589 0.55568373 0.13580723 -0.015652018 0.376713 0.16617931
-0.07849028 0.32606587 0.42466375 0.20913479 0.51551396 0.48238584 -0.008751211 0.2745442
0.45605278 0.16285232 0.44634125 0.382521 0.029443014 -0.036167353 0.3616477 -0.0036152862
-0.024812704 0.14683567 -0.5722801 -0.054335646 0.36495093 0.38316706 0.275747 0.5416846
0.69649726 0.46483693 0.9932531 0.06017759 -0.014142953 0.0012986579 0.4384096 0.22567081
-0.025801212 0.30349523 -0.041719202 0.095338084 0.36764818 0.042318203 0.5150482 -0.04568074
0.27707514 0.34038773 0.038277104 0.33175865 0.24485004 0.25395352 -0.95804316 -0.11814607
-0.0015396675 0.06762156 -0.0062699355 0.36150917 0.012929298 -0.0029856672 0.4307795 0.16930343
-0.031298928 0.39318275 0.22838983 0.004387637 -0.6819356 0.23228411 0.52462703 -0.006206564
1.0340492 0.06725122 0.3454467 0.5046047 0.2750331 0.33246467 0.5275982 0.23226081
0.48890588 0.4619112 -0.033648822 0.25315273 -0.03003727 0.45925516 0.27782282 0.13798131
0.061772086 0.1743038 0.16592525 -0.7778553 1.0788066 0.4982833 -0.044688262 -0.92257464
-0.021290494 0.6081687 0.00018668175 -0.53898233 0.23626097 0.02433079 -0.81758666 0.52335244
-0.60801953 0.22426546 -0.54249287 0.14924075 -0.9803305 0.49809697 0.3548312 0.10827115
-0.9614937 0.2861903 0.48215872 0.21533811 0.3106795 0.2757273 0.40376118 0.23421739
0.34296864 -0.0049529225 0.18263 -0.024556082 0.2879283 0.2421471 0.15403487 0.42239356
0.38186723 0.6916039 0.014885393 0.12859067 0.40133575 0.30758843 0.37712288 0.25667956
0.54820985 0.0056410637 0.38499925 0.3581975 0.49123883 0.13200282 -0.037128814 -0.10293555
0.22680336 0.5054218 0.09310336 0.63114923 0.51691264 0.41429585 0.15823306 0.15717088
0.4876053 0.013750963 0.61230284 0.19952564 0.004286476 0.2918312 -0.006416299 0.048798885
0.59248096 0.23732549 0.26763916 0.19397445 1.2613393 0.44658086 0.38582274 0.43624094
-0.76208156 0.24402596 0.47240192 0.4385621 0.51290315 0.22832815 0.52064127 -0.9626
-0.030430082 0.20064351 0.40571776 0.5746393 -0.67845696 0.34374598 -0.012177124 0.017144388
0.45315346 0.38563108 0.36141348 -0.56082714 0.22823827 -0.017977498 -0.078811586 0.0026655209
0.3662742 -0.039331667 0.08358575 0.07177557 -0.03654681 0.13173322 0.4340779 0.027249763

fc3.bias f4 [4]
00000000: 9589 0d41 491f 0941 dbbe 0041 da1f 0441
8.846089 8.570138 8.046596 8.257776
