web/app/model/dqn_agent_v1.onnx (onnx, 5870 bytes, 4 tensors)

fc1.weight f4 [64, 16]
0	0xc00642e4	-2.0978327
1	0xc09a1adc	-4.8157787
2	0xbfdd5ed1	-1.7294561
3	0xbfc1af44	-1.5131612
4	0xbf602aa7	-0.8756508
5	0xbc75bae4	-0.0149981715
6	0xbf95d935	-1.1706911
7	0xbfbbf442	-1.4683917
8	0x3fcf4c80	1.6195221
9	0xbf653fab	-0.89550275
10	0xbefeab38	-0.49740005
11	0xbe8fb911	-0.28070882
12	0xbd4cc255	-0.049990017
13	0xbf6edb3d	-0.9330328
14	0xbfb7dd4c	-1.436441
15	0xbfdbb097	-1.7163266
16	0x40078fe1	2.1181567
17	0x3fa74772	1.3068678
18	0xbf47fc2c	-0.7811916
19	0xc11ea027	-9.9141
20	0xbe5ad23d	-0.21369262
21	0xc10dea69	-8.869729
22	0xbf8ee130	-1.1162472
23	0x3fa12864	1.2590451
24	0x402a7393	2.663304
25	0x40c817e8	6.2529182
26	0xc07ce182	-3.951264
27	0x410d992e	8.849897
28	0x3ed2c865	0.41168514
29	0xc12547e1	-10.330049
30	0x405309de	3.2974772
31	0xc0d1deb6	-6.5584364
32	0xc0f649f7	-7.696529
33	0xc0d53c1d	-6.663588
34	0xbf9dc28f	-1.2325
35	0xc0b48d9a	-5.6422853
36	0x4034bc50	2.8239937
37	0xbf84d497	-1.0377377
38	0x4026eb42	2.608109
39	0x40198f59	2.3993742
40	0xc050619d	-3.2559578
41	0xbdad8b7d	-0.08473871
42	0xc085cd66	-4.181323
43	0xc05c4d7c	-3.4422293
44	0xc03c3489	-2.9407065
45	0x403401d8	2.8126125
46	0xc0910d81	-4.5328984
47	0xc008b7b2	-2.1362119
48	0xc1550fc3	-13.316348
49	0x40815519	4.041638
50	0xbf1959c6	-0.5990261
51	0xc0a44c01	-5.134278
52	0x40fb89f9	7.8605924
53	0xc12500e9	-10.312722
54	0xc05cc8d0	-3.4497566
55	0xc02ab5ef	-2.6673543
56	0xc18230e1	-16.273867
57	0xbf96f834	-1.1794496
58	0xc06d30d8	-3.7061062
59	0xc16d88e8	-14.845924
60	0x4074e700	3.8265991
61	0x3fc0d349	1.5064479
62	0xbf0d2d8d	-0.5514763
63	0x40370b39	2.86006
64	0xbccf41b6	-0.025299888
65	0xbd1a5b70	-0.037684858
66	0xbd050dd5	-0.032483894
67	0x3db9bff0	0.09069812
68	0xbe919086	-0.28430575
69	0x3cb44b90	0.022008687
70	0xbe19c86e	-0.15017864
71	0xbde43624	-0.11143139
72	0x3c8b022e	0.016968813
73	0xbe116fd0	-0.1420281
74	0xbd623340	-0.055224657
75	0x3dd20d6f	0.102564685
76	0xbddbc16c	-0.10730252
77	0xbd20c6f7	-0.039252248
78	0xbe125b3d	-0.14292617
79	0xbe8e9bd0	-0.2785325
80	0x3fd41f34	1.6572022
81	0xc0024ad7	-2.0358179
82	0xbfe79123	-1.8091167
83	0x404143db	3.0197666
84	0xc0adcc4a	-5.4311876
85	0xbf11d2fc	-0.5696256
86	0xc07f8cd9	-3.9929717
87	0xc08a126c	-4.314749
88	0xbfc2b278	-1.5210714
89	0xbf037bc9	-0.51360756
90	0xbf5c0ab7	-0.8595385
91	0xbfe9cede	-1.8266256
92	0xc08ebb21	-4.460343
93	0xbe4ab3dd	-0.19795175
94	0xbf966dda	-1.1752274
95	0xc028f5e1	-2.6400073
96	0xc081eb0f	-4.0599437
97	0xbf5e7b68	-0.86907053
98	0xbfd400d4	-1.6562753
99	0xbfb79da0	-1.4344978
100	0xbf3840e3	-0.7197401
101	0xbf43d9cb	-0.765042
102	0x3d832b96	0.06404798
103	0xc065b4cb	-3.5891597
104	0xc001b214	-2.026494
105	0x3fb4da60	1.4129143
106	0xc000346e	-2.0032
107	0xc0098427	-2.148691
108	0xc01a8360	-2.4142685
109	0x3f80efc3	1.007317
110	0xc0828aa1	-4.0794225
111	0xc07fecb9	-3.9988234
112	0xbe321354	-0.17390186
113	0xbdebbfa0	-0.11511159
114	0xbf0640e2	-0.52442753
115	0xbe62e9d4	-0.22159511
116	0xbe47e0c8	-0.19519341
117	0x3c91b930	0.0177885
118	0xbde16637	-0.11005824
119	0xbe56291a	-0.20914117
120	0xbe4caeae	-0.1998851
121	0xbe5036f4	-0.20333463
122	0x3d3c5016	0.045974813
123	0xbe33d66d	-0.17562266
124	0xbdff8c74	-0.12477961
125	0xbe6d7655	-0.23189671
126	0xbe6ccad2	-0.23124245
127	0xbe205ee2	-0.15661195
128	0xbff7e095	-1.9365412
129	0x3fda37c4	1.7048268
130	0xbe9fb707	-0.31194326
131	0xbf48289d	-0.7818697
132	0x40893152	4.2872705
133	0xc03d9f93	-2.9628646
134	0x400d981c	2.212409
135	0xbfed3533	-1.853186
136	0xc1027808	-8.1543045
137	0xc042d678	-3.0443401
138	0xc1056495	-8.337056
139	0xc1153ed5	-9.32784
140	0xc01a81f5	-2.414182
141	0x3fa43ce3	1.2831081
142	0x3fd58c3b	1.668342
143	0xbff39762	-1.9030573
144	0xbbe1f37a	-0.0068954797
145	0x3eba7ba9	0.3642247
146	0xc03122e8	-2.7677555
147	0x3c8b0cd1	0.016973885
148	0x400383b9	2.0549147
149	0x3fe1b2bd	1.7632672
150	0x3ffa0eb4	1.9535737
151	0xbe794bae	-0.24345276
152	0xc081b1eb	-4.0529685
153	0xbfee134a	-1.8599637
154	0xbffb1ca4	-1.9618115
155	0xc075097e	-3.8287044
156	0xbee68b91	-0.45028356
157	0xbf6cf25f	-0.9255733
158	0xbde026da	-0.1094491
159	0xbe70008b	-0.23437707
160	0xc04e7d45	-3.2263958
161	0xbf4e1a6b	-0.8050906
162	0x3f56cb7d	0.8390425
163	0xbfe313ef	-1.7740458
164	0x400accd6	2.1687522
165	0xc0b14b8a	-5.540471
166	0x3e21a9ca	0.15787426
167	0x3f38460e	0.71981895
168	0xc07d9516	-3.9622245
169	0xc01b9ed8	-2.43157
170	0x3fac2641	1.3449174
171	0xc0838d73	-4.1110168
172	0xbfda2252	-1.7041724
173	0xc0ba6d26	-5.825824
174	0xc015f974	-2.3433504
175	0xbfa098ac	-1.2546592
176	0xc056ff8c	-3.3593473
177	0xc0bb0f63	-5.8456283
178	0xbfccb342	-1.5992205
179	0xbfddf705	-1.7341009
180	0xbff6a309	-1.9268504
181	0xbdba1f40	-0.09087992
182	0xc1065a3e	-8.397032
183	0x3e8b7e94	0.2724501
184	0xbff8ffb9	-1.945304
185	0x4087c073	4.2422423
186	0xbf303466	-0.68829954
187	0xbfe9583a	-1.823005
188	0xbeeb652d	-0.45975628
189	0xc10d89db	-8.846156
190	0xc135ca8d	-11.361951
191	0xc11df043	-9.871158
192	0xc1348dbe	-11.284605
193	0xc1632353	-14.196124
194	0x413bcdc5	11.737737
195	0x40a9aa22	5.302018
196	0xc05aa6a9	-3.4164221
197	0xc0181e94	-2.3768663
198	0x401ad55b	2.4192722
199	0x40523e72	3.2850614
200	0xc156491b	-13.392848
201	0xc0f2288b	-7.567449
202	0xc024910c	-2.571353
203	0xc128209e	-10.507963
204	0xc022588a	-2.536654
205	0xc182495a	-16.285816
206	0xc0b78d75	-5.7360177
207	0xbd20b196	-0.03923186
208	0x3f25e6c3	0.6480524
209	0x3f556cab	0.8336894
210	0xc07880fa	-3.882872
211	0xc05419d7	-3.3140771
212	0x404dd829	3.2163184
213	0xbfc1e606	-1.5148323
214	0xc09fbbb1	-4.9916615
215	0xc0a027e2	-5.0048685
216	0xc08eb0df	-4.4590907
217	0xc0e2e39a	-7.0902834
218	0xc071d5df	-3.7786787
219	0xc0772263	-3.8614738
220	0x4059ed0e	3.4050937
221	0xc0063c1f	-2.0974195
222	0x3fe4786e	1.7849252
223	0xc0064dec	-2.098506
224	0x409babd9	4.8647275
225	0x4068c80c	3.63721
226	0xc08277fd	-4.077147
227	0xc1179865	-9.474706
228	0x40197194	2.3975573
229	0x407b9676	3.9310584
230	0x3d73cfe1	0.05952442
231	0xc160ee5a	-14.058191
232	0xc08be978	-4.3722496
233	0xc0fa0416	-7.812999
234	0xc1064725	-8.392369
235	0x40f94eea	7.790883
236	0xbec2eda1	-0.3807192
237	0x3e983c49	0.29733494
238	0xbf582116	-0.84425485
239	0xbf911f3a	-1.1337655
240	0xc090b750	-4.522377
241	0xc001b883	-2.0268867
242	0xc098ac36	-4.771022
243	0xbd53adeb	-0.051679533
244	0xbef1dae3	-0.4723731
245	0x3eb38b32	0.35067135
246	0xbf561ed6	-0.836408
247	0xbe396093	-0.18103246
248	0xbf95bbd2	-1.1697943
249	0xbe38d473	-0.18049793
250	0xc0312df3	-2.7684295
251	0x3ffee2a4	1.9912915
252	0xc0228d91	-2.5398905
253	0xc00a6dfe	-2.1629634
254	0xc00e0f7b	-2.2196949
255	0xc07cc761	-3.9496691

fc1.bias f4 [64]
0	0xbf45609e	-0.7710055
1	0xc1196224	-9.58646
2	0xc0a17688	-5.045719
3	0xc10cc091	-8.797013
4	0xbe4ebbbc	-0.20188802
5	0xc0a3127b	-5.096006
6	0x3eeeaba0	0.46615314
7	0xbf1fcc85	-0.6242145
8	0xc0cd8bdb	-6.423322
9	0xc08db6ef	-4.4285808
10	0xc013936f	-2.3058736
11	0xc076dffb	-3.8574207
12	0xc0b14a14	-5.5402927
13	0xc0bf9496	-5.986888
14	0xc12602f9	-10.375726
15	0xbe9f3966	-0.3109848
16	0xc0805ba3	-4.011186
17	0xc04b2640	-3.1742096
18	0xbf9d5c3b	-1.2293772
19	0xbef1b8e3	-0.4721137
20	0xbff86f9a	-1.9409058
21	0xc0f7da49	-7.745396
22	0xc098723f	-4.763946
23	0xbf610acc	-0.879071
24	0xc0ef08fb	-7.4698462
25	0xbfde1ada	-1.7351944
26	0xbfee5b5a	-1.8621628
27	0xc0cd08a9	-6.407307
28	0xc03babfe	-2.9323726
29	0x402aa58a	2.6663537
30	0xc0fbb9e1	-7.8664403
31	0xc0bbc2d3	-5.8675323
32	0xbf9c6f7e	-1.2221525
33	0xc112834d	-9.157056
34	0xc06ac0fa	-3.6680284
35	0xbf8becac	-1.0931602
36	0xc07b02dd	-3.9220498
37	0xbfc601ac	-1.546926
38	0xc10627dd	-8.384732
39	0xc02a55bf	-2.6614835
40	0xc0e38a41	-7.1106267
41	0xc0c70c8d	-6.220282
42	0xc10bcdd6	-8.737753
43	0xc0ee9ec2	-7.4568796
44	0xc022ea40	-2.5455475
45	0xc137b299	-11.481103
46	0xc1273dd4	-10.452595
47	0x3f85517e	1.0415494
48	0xc02d4d0d	-2.7078278
49	0xbeb2fd86	-0.34959048
50	0xc0f86295	-7.762034
51	0xbd90e6d4	-0.07075277
52	0xbeda1735	-0.4259583
53	0xc1b156e8	-22.167435
54	0xc047b9cb	-3.120715
55	0xc15721db	-13.4457655
56	0xbfab8ead	-1.3402916
57	0xc11e7f10	-9.906021
58	0xc06e183d	-3.7202294
59	0xc12673be	-10.403257
60	0x3fdb65d6	1.7140453
61	0xc14fcc4b	-12.987376
62	0xc0653e5c	-3.581931
63	0xc0bb66e7	-5.8563113

fc2.weight f4 [4, 64]
0	0xc00532e9	-2.0812323
1	0x3f0d778b	0.55260533
2	0x3ea4093d	0.32038298
3	0xc044e4b0	-3.076458
4	0x3dc78d80	0.09743786
5	0xbe7f1bc8	-0.24912941
6	0x3fbe5420	1.4869423
7	0xbcb4dbd2	-0.022077475
8	0xbe0b0066	-0.1357437
9	0xbfad7aa1	-1.3553048
10	0xc02d0a17	-2.7037408
11	0xc042ec7a	-3.0456834
12	0xbf1fceee	-0.62425125
13	0xc01b028b	-2.4220302
14	0x3ea0b8c0	0.31390953
15	0xbe163b51	-0.14671065
16	0x3e8d1760	0.27556896
17	0x3f6a25a1	0.9146367
18	0xbdcea51e	-0.10090087
19	0xbe7788df	-0.24173306
20	0xbe7b6462	-0.24550012
21	0xbc9dd208	-0.01926519
22	0xbec427ef	-0.38311717
23	0x39eea2dd	0.0004551624
24	0xc0c74619	-6.227307
25	0x3e2ce3d4	0.16883785
26	0xbcf1c83a	-0.02951442
27	0x3e15c47a	0.14625731
28	0xc0555d27	-3.3338106
29	0x3f0bfb39	0.5468021
30	0xbfee06df	-1.8595847
31	0xc00bd7ab	-2.1850383
32	0x3d6487f5	0.05579372
33	0xc0f4d823	-7.651384
34	0xbf2eace0	-0.68232536
35	0x3f0ebb71	0.5575476
36	0x3da7b720	0.08189225
37	0x3f75bcc0	0.95991135
38	0x3f6fac59	0.93622357
39	0x3f1f1f59	0.6215721
40	0xbe313e1f	-0.17308854
41	0xbe67ab6b	-0.22623985
42	0xc0888766	-4.266528
43	0x3f14fd5c	0.58199096
44	0xbd6545b7	-0.05597469
45	0xc01856d5	-2.3802998
46	0x3eaec03a	0.34131032
47	0x3f8254a6	1.0182083
48	0x3df365c6	0.11884646
49	0x3e3935ee	0.18086979
50	0xbf916810	-1.1359882
51	0xbddd422c	-0.10803637
52	0xbc6fb640	-0.014630854
53	0xbfab0a15	-1.3362452
54	0x3f6041d8	0.8760047
55	0x3ebea723	0.3723689
56	0x3eecbcd7	0.46237823
57	0xc0049a11	-2.0719035
58	0x3fb378ef	1.4021281
59	0xbe101c53	-0.14073305
60	0x3f9ccfa7	1.225087
61	0x3eef2779	0.46709803
62	0xc0669224	-3.6026697
63	0xbed761a2	-0.42066675
64	0xbe8fe540	-0.2810459
65	0x3f37b36e	0.7175816
66	0xbeddcb1c	-0.43319023
67	0xbf180e2f	-0.5939664
68	0x3e47c2bc	0.19507879
69	0x3f8f9685	1.121781
70	0x3eddd66d	0.43327656
71	0x3c692f12	0.014232414
72	0x3f691f4f	0.910634
73	0xc03df424	-2.9680262
74	0xbf8e4330	-1.1114254
75	0xbf871889	-1.0554363
76	0xc03dd4f4	-2.9661226
77	0x3f4ab55e	0.79182994
78	0x3f330b00	0.6993866
79	0xbdc56c02	-0.096397415
80	0x3f75a83d	0.95959836
81	0xbe0cee04	-0.13762671
82	0xbe19e204	-0.15027624
83	0x3dcfe9b2	0.10151996
84	0x3dee1226	0.11624555
85	0xbee2fcc2	-0.44333464
86	0xbf94a67f	-1.161331
87	0x3d27f0a2	0.04100097
88	0xbe302d34	-0.17204744
89	0x3fc20e21	1.5160562
90	0xbf469d81	-0.7758408
91	0x3f45c1c8	0.7724881
92	0xbf89e509	-1.0773021
93	0x3f9a16c8	1.2038202
94	0xc0148f58	-2.321249
95	0x3f7c5159	0.98561627
96	0xc04266ab	-3.0375164
97	0x3e014344	0.12623316
98	0xbf1c4145	-0.61037093
99	0xc00e9189	-2.2276328
100	0x3eaa9278	0.33314872
101	0x3e66bf2a	0.22533861
102	0x3f4e6a2e	0.8063077
103	0x3f8cfc98	1.1014585
104	0xc0993e9e	-4.7888937
105	0xbd43fcf7	-0.047848668
106	0xc0cce84e	-6.4033575
107	0xc065fd66	-3.5935912
108	0x3fd0f426	1.6324508
109	0xc06a034a	-3.6564507
110	0x3f62f87b	0.886604
111	0x3f5a2085	0.8520587
112	0xbf0824dd	-0.5318125
113	0xbddf5fae	-0.10906921
114	0xbfe732e1	-1.8062402
115	0xbe3a6674	-0.18203145
116	0xbd8f7386	-0.07004456
117	0xbfa1c681	-1.2638704
118	0x3f806c53	1.0033058
119	0xc0751a72	-3.829739
120	0x3fa5325e	1.2905996
121	0xbfb8187a	-1.438247
122	0xbe4d8378	-0.20069683
123	0xc0998776	-4.7977858
124	0x3f0f95d9	0.56088024
125	0xbde40310	-0.111333966
126	0x3e87e6d7	0.26543304
127	0xc06af9e6	-3.6715026
128	0x3fa160f8	1.2607718
129	0xbe747ba0	-0.23875284
130	0x3ef8b17f	0.4857292
131	0x3dd5f18f	0.10446464
132	0x3bf9b2f4	0.00762021
133	0xbfacb8ad	-1.3493859
134	0x3facb82c	1.3493705
135	0xbe77f1f9	-0.24213399
136	0xbe623431	-0.22090222
137	0xc0042887	-2.0649736
138	0x3e287b53	0.16453294
139	0xbf28f39f	-0.65996736
140	0x3ec6d78a	0.38836318
141	0xbf00ca9b	-0.5030915
142	0xc0b844b9	-5.758389
143	0xbe948131	-0.29004815
144	0x3eea15fb	0.45719895
145	0x3f738029	0.9511743
146	0xbeda36b7	-0.4261987
147	0xbc2e99c9	-0.010656782
148	0x3f766d11	0.9626017
149	0xc05df8ca	-3.4683099
150	0x3e9405b0	0.2891059
151	0xbf8bd7bd	-1.0925213
152	0x3ecf6fc1	0.4051495
153	0x3e7dd2dd	0.24787469
154	0xbd7c25bd	-0.061559428
155	0xc0a2fc8c	-5.0933285
156	0x3ee1902b	0.44055304
157	0x3e51a227	0.20472012
158	0xc0b48362	-5.641038
159	0xbf352a62	-0.70767796
160	0x3ee636a0	0.4496355
161	0xc0fa9816	-7.831065
162	0xbe20c373	-0.15699558
163	0x3f006bb2	0.5016433
164	0xbe6f190d	-0.233494
165	0x3f7358a3	0.95057124
166	0x3f675ebc	0.9037893
167	0x3f02ce7b	0.51096314
168	0xbed3e3e9	-0.4138482
169	0x3f0a884b	0.54114217
170	0xc0a3d952	-5.1202784
171	0xbf077576	-0.52913606
172	0xbf9614b9	-1.1725074
173	0xc03dee29	-2.9676611
174	0x3eb482ea	0.3525613
175	0x3f883022	1.0639689
176	0xbfc25174	-1.5181108
177	0x3d96deca	0.073667124
178	0x3fa476a9	1.2848712
179	0x3d0e3f27	0.034728196
180	0xbcb4c1a8	-0.022064999
181	0xbfb049f5	-1.377257
182	0xbe481af4	-0.19541532
183	0xbee1975c	-0.4406079
184	0x3dcc19dc	0.0996587
185	0xbefafd0f	-0.49021193
186	0x3f646ac8	0.89225435
187	0x3de8d1a5	0.113681115
188	0x3fa070ab	1.2534384
189	0x3ef8c249	0.48585728
190	0xc00c9ee5	-2.1971982
191	0xbc9245af	-0.017855493
192	0xbe2a07c1	-0.1660452
193	0x3f633dd2	0.88766205
194	0xbf51e56e	-0.81990707
195	0xc0a857bd	-5.2607102
196	0x3de75c65	0.1129692
197	0x3ead3853	0.33832034
198	0x3f6387f3	0.8887932
199	0x3d8b0e6e	0.067898616
200	0xc0a30504	-5.0943623
201	0xbf52b145	-0.8230174
202	0xbf3de90a	-0.74183714
203	0x3da0a621	0.078441866
204	0xc05d3e6b	-3.4569347
205	0xbf496a44	-0.78677773
206	0x3f25af51	0.64720637
207	0x3f5816f2	0.8441001
208	0xbeb4d48d	-0.35318413
209	0x3f7c75f8	0.98617506
210	0xbea51547	-0.32242796
211	0xbd9d7368	-0.076880276
212	0xbe4bf7dc	-0.1991877
213	0xbfe42c9e	-1.7826116
214	0x3d7f14e0	0.062275767
215	0x3e53728b	0.20649163
216	0xbe890a3a	-0.26765615
217	0xbd9c749d	-0.0763943
218	0xbea39b03	-0.31954202
219	0xbee2d977	-0.44306538
220	0xbf90005d	-1.1250111
221	0x3f97064b	1.1798795
222	0xbf6390ea	-0.88892996
223	0xbfe527a5	-1.7902724
224	0xc0332c65	-2.7995846
225	0xbf55f88a	-0.83582366
226	0x3d64316f	0.055711206
227	0x3f3110e9	0.6916643
228	0xbf28cf17	-0.65940994
229	0xbf92249c	-1.1417422
230	0xc0dd2ff5	-6.912104
231	0xbd2c7758	-0.042106003
232	0xbf9ea103	-1.2392887
233	0xbe739495	-0.23787148
234	0x3f137ed2	0.5761539
235	0xc0741232	-3.8136106
236	0xbd50a112	-0.05093486
237	0xbe344a3b	-0.17606442
238	0x3fa593af	1.2935694
239	0x3f4994af	0.787425
240	0xbe93e3a8	-0.28884625
241	0x3d84de8a	0.064877585
242	0xbdb71d7f	-0.08941173
243	0x3cbbb2c0	0.022912383
244	0xbd968b0c	-0.0735074
245	0xbf8d6790	-1.104723
246	0xbfe219c3	-1.7664112
247	0xc0855774	-4.1669254
248	0x3f9b4223	1.2129558
249	0xc02a314f	-2.6592596
250	0x3e92004f	0.2851586
251	0xc0c624a1	-6.1919713
252	0x3ef733ef	0.4828181
253	0xbf5c65b1	-0.8609267
254	0xbd1b442f	-0.03790682
255	0xbe8e6f14	-0.2781912

fc2.bias f4 [4]
0	0x3fe00011	1.750002
1	0x3fd93032	1.6967833
2	0x3fe82231	1.8135434
3	0x3ff85a88	1.9402628
